output/autoencoder.pth (torch, 2160 bytes, 4 tensors)

encoder.0.weight f4 [2, 5]
000000 58 d7 e1 bc af 68 c5 bc a2 d2 19 bf 89 19 1f 3f
       -0.027568504 -0.024097769 -0.60087025 0.6214834
000010 fe 6c fc bc 68 d0 1b 3f e4 4a 1e 3f 21 10 2d bd
       -0.03081369 0.6086488 0.61833024 -0.04225171
000020 fb 2a 32 3d da 6d af 3c
       0.04349802 0.021414686

encoder.0.bias f4 [2]
000000 52 72 cb 3e 42 80 cb bd
       0.39735657 -0.099365726

decoder.0.weight f4 [5, 2]
000000 db cc 80 bd 5a b2 4e 3f 16 2c 4a bd 8a ff 50 3f
       -0.06289073 0.8074089 -0.04935845 0.8163992
000010 2b ae 4e bf 7d 58 07 bd 1b 37 52 3f ee 1b 18 3d
       -0.8073451 -0.033043373 0.82115334 0.03713601
000020 e5 1c 5a bd 5d 20 f8 3c
       -0.053250212 0.03028887

decoder.0.bias f4 [5]
000000 2e b4 cf 3d 45 dc d9 3d 37 63 9b 3e 4d 4e ad be
       0.101417884 0.10637716 0.30349132 -0.338488
000010 26 27 ea bc
       -0.02858312
