output/feedforward_nn_model.pth (torch, 21130 bytes, 5 tensors)

fc1.weight f4 [64, 5]
0	0xbe32d989	-0.17465796
1	0xbebc5fda	-0.3679188
2	0x3eb6d6c7	0.35710737
3	0x3f10366b	0.56333035
4	0x3df3379d	0.11875842
5	0xbe862601	-0.2620087
6	0x3e461416	0.193436
7	0x3e81e56a	0.25370342
8	0xbe6235a0	-0.22090769
9	0x3c1b2a8a	0.009470591
10	0xbea393c6	-0.3194868
11	0x3e240d87	0.16020785
12	0xbe9a8620	-0.30180454
13	0xbe95e9b6	-0.2927987
14	0x3f1d7c4a	0.61517775
15	0xbe957274	-0.29188883
16	0x3e5a6cf0	0.21330619
17	0x3e6d0b52	0.2314885
18	0xbe3d8e2f	-0.1851127
19	0x3d99d910	0.075121045
20	0x3e65965a	0.22420636
21	0xbe3217b0	-0.17391849
22	0x3ed2a8bd	0.41144362
23	0xbf040c8c	-0.51581645
24	0x3dadb9f8	0.08482736
25	0x3f20efe1	0.62866026
26	0xbec4dc8d	-0.38449517
27	0x3ecf3f46	0.4047796
28	0xbea1cccf	-0.3160157
29	0xbed5b606	-0.41740435
30	0xbeb75e89	-0.35814312
31	0xbdfc09e3	-0.12306573
32	0x3efc6924	0.49298966
33	0xbe1b6e61	-0.15178825
34	0xbf123725	-0.57115394
35	0xbeaf74d8	-0.34268832
36	0x3ea1413d	0.31495085
37	0x3ed7c436	0.42141885
38	0x3efa88dc	0.4893254
39	0xbf250954	-0.6446736
40	0xbee73301	-0.451561
41	0x3ee5fa38	0.44917464
42	0x3e7f79b0	0.24948764
43	0xbdf8fcde	-0.121576056
44	0xbed03ea1	-0.40672782
45	0x3e52f129	0.20599808
46	0x3ebf2ce4	0.37338936
47	0xbd8e2f62	-0.06942631
48	0xbe4a5833	-0.19760208
49	0x3ee1429b	0.43996128
50	0x3e7e1580	0.24812889
51	0xbf470806	-0.7774662
52	0x3f013fc9	0.50487953
53	0xbd6d1eb1	-0.057890598
54	0xbef46b0f	-0.4773793
55	0xbe230486	-0.15919694
56	0x3f02aa18	0.5104079
57	0xbcfa0048	-0.030517712
58	0x3f0c7ab9	0.5487476
59	0x3dbdf04c	0.092743486
60	0xbef25d0d	-0.47336617
61	0xbdc1f5df	-0.09470724
62	0x3eeaecd9	0.45883825
63	0x3d367576	0.044545613
64	0x3e9d87af	0.3076758
65	0x3e877bb4	0.26461565
66	0x3e6988bb	0.22806065
67	0x3ec636e1	0.38713744
68	0xbf142c3d	-0.5788
69	0xbd0b0ffb	-0.033950787
70	0x3e6651c5	0.2249213
71	0x3ecc5992	0.39912087
72	0x3ea3ecc0	0.32016563
73	0xbe9e63b8	-0.30935454
74	0xbef6835d	-0.48147097
75	0xbc8bcbe4	-0.017064996
76	0x3e605603	0.21907811
77	0x3ec60a22	0.38679606
78	0x3d43d2b6	0.04780837
79	0x3ee8f625	0.45500293
80	0xbe1e3c33	-0.15452652
81	0x3eb03201	0.3441315
82	0xbf3fd707	-0.7493748
83	0x3e2d2ffb	0.16912834
84	0xbd3bf797	-0.045890417
85	0xbe58b8b7	-0.21164213
86	0x3ee5f08c	0.44910085
87	0xbeb3fe3c	-0.35154903
88	0x3e10ffb1	0.14160039
89	0x3ea80b94	0.32821333
90	0xbf0db135	-0.5534852
91	0xbef99ff6	-0.48754853
92	0xbf2fba72	-0.6864387
93	0x3e170bdd	0.14750619
94	0x3d9f8436	0.07788889
95	0x3e23c3ff	0.15992735
96	0xbd9b8eed	-0.0759562
97	0x3e59006a	0.21191564
98	0xbf17b26c	-0.59256625
99	0x3e94aaed	0.29036656
100	0x3e8bc249	0.27296665
101	0x3e759abd	0.23984809
102	0x3f12d074	0.57349324
103	0xbef488df	-0.47760674
104	0x3e242aa6	0.16031894
105	0x3e7674d6	0.24068007
106	0xbc978ca7	-0.018499685
107	0xbf046145	-0.5171092
108	0x3f08e9a4	0.5348151
109	0xbf064e98	-0.52463675
110	0xbca800ec	-0.020508252
111	0x3e838714	0.25688994
112	0xbd9b3f71	-0.0758046
113	0x3e5100b7	0.20410429
114	0x3f39860a	0.7247015
115	0x3d612850	0.054970086
116	0x3edf0868	0.435611
117	0x3f1b08b9	0.60560185
118	0xbe9173bd	-0.28408614
119	0xbf0346df	-0.51280016
120	0x3e9fb843	0.31195268
121	0xbe351182	-0.1768246
122	0x3ebbff3a	0.3671816
123	0xbd15e531	-0.036595527
124	0x3e4faeeb	0.2028157
125	0xbb8316e7	-0.004000533
126	0x3ef9a1e7	0.48756334
127	0x3f038b13	0.51384085
128	0xbe5e5b2c	-0.21714467
129	0x3eaafa7c	0.3339423
130	0xbf0e5628	-0.55600214
131	0x3ee41094	0.44543898
132	0x3e983674	0.29729044
133	0x3ed9ba7a	0.42525083
134	0xbd936ec4	-0.07198861
135	0x3e2df5d0	0.16988301
136	0x3ebc111c	0.36731803
137	0x3ce76613	0.028246915
138	0x3ef38a79	0.47566584
139	0x3e9ad752	0.302424
140	0xbe2f9b23	-0.17149024
141	0x3ebebdc1	0.37254146
142	0xbef218b3	-0.4728447
143	0xbf0a6929	-0.5406671
144	0xbeab2a8e	-0.33430904
145	0x3d5f76a5	0.054556508
146	0xbde8d560	-0.11368823
147	0xbf01a8de	-0.50648296
148	0x3ed85c03	0.422577
149	0xbedd28b0	-0.43195105
150	0x3eb79d7d	0.35862342
151	0x3edbc209	0.42921475
152	0xbcb23a3c	-0.021756284
153	0x3dd54348	0.104132235
154	0x3e73cf3d	0.23809524
155	0x3e97702f	0.29577777
156	0xbe28dc3a	-0.1649026
157	0xbf1c8032	-0.6113311
158	0x3e4243f3	0.18971233
159	0xbf19c52d	-0.6006649
160	0x3f198601	0.599701
161	0xbebb567d	-0.36589423
162	0x3cc6000c	0.024169944
163	0x3d27ae8c	0.040937945
164	0xbdc30778	-0.09522909
165	0x3d44bbe9	0.048030768
166	0x3f29eb84	0.66374993
167	0xbe53c980	-0.20682335
168	0xbef11218	-0.47084117
169	0xbe876e24	-0.26451218
170	0x3edf6502	0.4363175
171	0x3ef11ead	0.47093716
172	0xbe1fb5e5	-0.15596731
173	0xbbf77807	-0.00755215
174	0xbe175b4b	-0.14780919
175	0x3d6b68ba	0.057472922
176	0xbee0e7aa	-0.43926746
177	0x3eb354b9	0.35025576
178	0xbe872acc	-0.2639984
179	0xbe93ea20	-0.2888956
180	0xbd8f7e9f	-0.07006573
181	0x3db75f8a	0.089537695
182	0x3f0078e9	0.50184494
183	0xbef02989	-0.4690669
184	0xbe62161b	-0.22078745
185	0x3da50018	0.080566585
186	0xbecdbd68	-0.40183568
187	0xbee884b1	-0.45413736
188	0x3d072119	0.03299055
189	0x3f1db657	0.61606354
190	0xbef1a554	-0.47196448
191	0xbea1d9f0	-0.31611586
192	0x3e850684	0.25981534
193	0x3ec400f9	0.38281992
194	0xbec53b85	-0.38521972
195	0xbe723c47	-0.23655806
196	0xbf233538	-0.6375308
197	0xbea02a50	-0.31282282
198	0xbebafb7a	-0.36519986
199	0xbe1521a2	-0.14563611
200	0xbf0b3d1a	-0.5439011
201	0xbe2fe65d	-0.1717772
202	0xbeb763bc	-0.3581828
203	0xbeb39e7c	-0.3508185
204	0x3eccb48b	0.39981493
205	0xbe4eb0fb	-0.201847
206	0x3ec963aa	0.3933385
207	0x3ee38de6	0.44444197
208	0x3f09a7ec	0.53771853
209	0x3ed3f173	0.4139515
210	0x3ecd946d	0.40152302
211	0x3e99b37a	0.30019742
212	0xbeaf415d	-0.34229556
213	0x3eeb9482	0.4601174
214	0x3e313997	0.17307125
215	0xbe16042b	-0.14650027
216	0xbe9e8c6a	-0.30966502
217	0x3f1cba16	0.61221445
218	0x3eb7c469	0.35892037
219	0xbee4091f	-0.4453821
220	0x3dadd8e9	0.08488638
221	0x3f13d4b6	0.57746446
222	0x3ed5b594	0.41740096
223	0xbf468acb	-0.7755553
224	0x3e8bc990	0.27302217
225	0xbebbb681	-0.36662677
226	0x3e831909	0.25605038
227	0xbe34db5a	-0.17661801
228	0x3f1a1591	0.6018916
229	0x3d801a63	0.06255033
230	0xbe260ad1	-0.16215064
231	0x3dcde726	0.10053854
232	0x3e1116d9	0.14168872
233	0x3f13a7e0	0.5767803
234	0xbeadac12	-0.33920342
235	0xbe166624	-0.14687401
236	0x3f0bfb26	0.546801
237	0xbe44a290	-0.19202638
238	0x3e2388f5	0.15970214
239	0x3ec4cc83	0.3843728
240	0xbe6d67ce	-0.2318413
241	0x3e4f028c	0.20215815
242	0x3ec076f1	0.37590745
243	0xbde74cef	-0.11293971
244	0xbed5c372	-0.41750675
245	0xbd8e1d9f	-0.069392435
246	0xbeda61af	-0.42652652
247	0xbe2cf6b6	-0.16890988
248	0x3e221899	0.15829696
249	0xbe17667a	-0.14785185
250	0xbd611c13	-0.054958414
251	0x3b2b65d4	0.0026153224
252	0xbdff3bd0	-0.1246258
253	0x3e9d7688	0.30754495
254	0xbee07832	-0.43841702
255	0x3edfd74e	0.43718952

fc1.bias f4 [64]
0	0xbe1c4107	-0.15259181
1	0xbf0e2a33	-0.5553314
2	0xbee43c27	-0.44577143
3	0xbefb1282	-0.49037558
4	0xbe941da6	-0.2892887
5	0x3d2cae94	0.04215868
6	0xbd6271f3	-0.05528445
7	0xbe8c2c79	-0.2737768
8	0x3ed18d29	0.4092801
9	0x3e2114df	0.15730618
10	0xbeca3a84	-0.3949777
11	0xbd9bc9ea	-0.076068714
12	0x3d8f69b5	0.07002584
13	0xbe8d85e1	-0.27641204
14	0x3f16207b	0.5864331
15	0xbef2dd6d	-0.4743456
16	0xbc9ca60b	-0.019122144
17	0xbe87b028	-0.26501584
18	0x3ecbdc13	0.3981634
19	0x3d7e6368	0.06210652
20	0xbee7d3f1	-0.45278886
21	0xbdae7d42	-0.08519985
22	0x3e0e76ad	0.13912459
23	0xbeb9e83c	-0.36309993
24	0x3d7e4395	0.06207617
25	0x3e553c44	0.20823771
26	0xbe8bf548	-0.27335572
27	0x3df1c3ee	0.11804949
28	0x3db86ce7	0.090051465
29	0x3d133560	0.035939574
30	0xbf075c7a	-0.52875483
31	0xbcdcd040	-0.02695477
32	0xbe84ed32	-0.25962216
33	0xbe6581e9	-0.22412838
34	0x3e57c2ea	0.21070448
35	0x3ecfdc59	0.405978
36	0xbe428f4d	-0.18999977
37	0xbe8594f4	-0.26090205
38	0xbd4eabf2	-0.05045695
39	0xbf05d13b	-0.52272385
40	0xbe64ca36	-0.22342762
41	0xbca5b6d9	-0.02022879
42	0x3e940b83	0.28915033
43	0xbe5893a4	-0.2115007
44	0x3e6938d6	0.22775587
45	0x3ed8e69a	0.42363435
46	0x3e447d89	0.19188513
47	0x3ea3101c	0.31848228
48	0x3f0655d4	0.52474713
49	0x3ecdd98e	0.40205044
50	0x3f0a7a59	0.5409294
51	0xbd661f17	-0.056181993
52	0xbea93807	-0.33050558
53	0x3e7ea29c	0.24866718
54	0xbdaf745c	-0.08567116
55	0xbec93f87	-0.3930628
56	0x3e0addb8	0.13561141
57	0x3cfb4f08	0.030677333
58	0x3e00d319	0.12580527
59	0xbe0ece67	-0.13945924
60	0xbea675df	-0.32511804
61	0x3b4ec0cf	0.0031548028
62	0xbe5a2844	-0.21304423
63	0x3e24ac5a	0.16081372

fc2.weight f4 [64, 64]
0	0xbe5d3197	-0.21600948
1	0xbdca3b32	-0.09874572
2	0xbe631025	-0.22174127
3	0x3de49fd0	0.11163294
4	0xbd3eb32c	-0.04655759
5	0x3e472b35	0.19450076
6	0xbe4fcf12	-0.20293835
7	0x3e75020b	0.2392656
8	0xbd72d9ee	-0.059289865
9	0x3e11b391	0.14228655
10	0x3ed6d66d	0.4196047
11	0x3e95ce44	0.2925893
12	0xbdc14698	-0.09437293
13	0xbe35e27c	-0.17762178
14	0xbe6d7cd1	-0.23192145
15	0xbe38fb12	-0.18064526
16	0xbe0a0019	-0.134766
17	0xbde84178	-0.11340612
18	0x3e2ebc03	0.17063908
19	0xbdc38312	-0.09546484
20	0xbd5ba4a8	-0.053623825
21	0x3e0e6e84	0.13909346
22	0x3e571def	0.21007513
23	0x3e1df7f5	0.1542662
24	0xbd1bdc04	-0.03805162
25	0x3e7cf08b	0.24701135
26	0xbe1d15fc	-0.15340418
27	0xbe6e2b96	-0.23258814
28	0xbebe2fab	-0.37145743
29	0x3dad14d0	0.08451235
30	0xbe374fb7	-0.17901503
31	0x3bed8aea	0.007249226
32	0xbf588aaf	-0.84586614
33	0x3eafce01	0.34336856
34	0x3e18c1d6	0.14917693
35	0x3d8f739c	0.070044726
36	0xbc179453	-0.009251672
37	0xbd32074c	-0.04346399
38	0x3ea526e4	0.32256234
39	0xbd371052	-0.0446933
40	0xbd201807	-0.039085414
41	0xbd95caf2	-0.07314099
42	0xba7e480e	-0.0009700068
43	0xbd86613f	-0.06561517
44	0x3e7365e4	0.23769337
45	0x3e44915f	0.1919608
46	0xbd358766	-0.04431858
47	0x3db63d53	0.088984154
48	0x3c935e07	0.017989172
49	0x3e26a06e	0.16272137
50	0xbd4eb8ed	-0.050469328
51	0x3e1cc036	0.15307698
52	0xbe54305f	-0.20721577
53	0x3d35b045	0.044357557
54	0xbd0456ce	-0.032309346
55	0xbf65b11a	-0.8972336
56	0xbe65d620	-0.22444963
57	0xbe3595c9	-0.1773292
58	0x3e37c579	0.17946424
59	0xbf5f3075	-0.87183315
60	0xbee2a108	-0.44263482
61	0xbbb6c978	-0.005578216
62	0xbf20f79f	-0.6287784
63	0xbe0e5cc0	-0.13902569
64	0xbd233f36	-0.039855205
65	0xbe5854cc	-0.21126097
66	0xbea41ad7	-0.32051727
67	0xbe928db4	-0.28623736
68	0xbe9eb44d	-0.30996934
69	0x3e914c20	0.2837839
70	0xbe4e49ab	-0.2014529
71	0xbe9faa43	-0.31184587
72	0x3da9b03e	0.08285569
73	0x3e8d6082	0.27612692
74	0x3ef1583e	0.47137636
75	0x3e2972ae	0.16547653
76	0xbc59f20f	-0.01330234
77	0xbe3be066	-0.1834732
78	0xbe3350ca	-0.17511287
79	0xbdf019c8	-0.117236674
80	0xbeaff29e	-0.3436479
81	0xbe8150bd	-0.2525691
82	0x3e845869	0.25848702
83	0xbda60bfb	-0.08107754
84	0xbe2a0bd3	-0.16606073
85	0xbe74b21c	-0.23896068
86	0x3d47b033	0.04875202
87	0x3e64d6c1	0.22347547
88	0xbdbb4bf8	-0.09145349
89	0x3d00930c	0.031390235
90	0xbe4aef39	-0.19817819
91	0xbdae5c34	-0.0851368
92	0xbeae49d7	-0.3404071
93	0xbe259e1c	-0.16173595
94	0xbd9dfc05	-0.077140845
95	0xbea1652d	-0.31522503
96	0xbebad7e8	-0.36492848
97	0x3eee7432	0.46573025
98	0xba8f2064	-0.0010919687
99	0x3e12da88	0.14341176
100	0x3de24158	0.110476196
101	0xbcc44547	-0.023958815
102	0x3e9265cf	0.285933
103	0xbc00d60a	-0.007863531
104	0xbd2fa400	-0.042881012
105	0xbdd846a9	-0.10560352
106	0x3e0997ad	0.13436766
107	0xbdfbbf4f	-0.122923486
108	0x3e9dde39	0.30833605
109	0x3dccfbc0	0.10008955
110	0xbe716980	-0.23575401
111	0x3e21c890	0.15799165
112	0x3e6bccc7	0.23027335
113	0x3e82c87d	0.25543585
114	0x3e99eb73	0.30062446
115	0xbd977270	-0.07394874
116	0xbea69741	-0.32537273
117	0x3d542c42	0.05180002
118	0x3d39d767	0.04537144
119	0xbf4bfcb7	-0.7968249
120	0xbe37f173	-0.179632
121	0xbd9464e9	-0.072458096
122	0x3dff333e	0.124609455
123	0xbf704cfc	-0.9386747
124	0x3e6fdeac	0.23424786
125	0xbd390f14	-0.045180395
126	0xbf0ead54	-0.5573323
127	0x3c9113ec	0.017709695
128	0xbc515020	-0.012775451
129	0xbdb0c5fa	-0.08631511
130	0x3ab70f00	0.0013966262
131	0x3d4ed7e8	0.050498873
132	0x3d908b36	0.070578024
133	0x3ba34620	0.004982725
134	0xbba0d4e0	-0.004908189
135	0x3dc88c42	0.09792377
136	0xbdd25fd2	-0.102721825
137	0xbdcad33c	-0.09903571
138	0xbbd72dc0	-0.006566733
139	0xbd1412a0	-0.036150575
140	0x3d10e6e4	0.035376444
141	0xbdba0316	-0.0908262
142	0xbd8404ac	-0.064462036
143	0xbc151f30	-0.009101674
144	0xbdcca95a	-0.09993239
145	0xbd868cf2	-0.06569852
146	0x3dc97ac4	0.09837869
147	0xbd8bfc1c	-0.068351954
148	0xbddafc70	-0.1069268
149	0x3de4db70	0.11174667
150	0x3c706120	0.014671594
151	0xbd9ca8d6	-0.076493904
152	0xbde255de	-0.11051534
153	0x3d65a404	0.05606462
154	0xbdaadab0	-0.083424926
155	0xbd88e922	-0.066850916
156	0xbdbc5b1c	-0.09197065
157	0x3c024380	0.007950664
158	0xbb922660	-0.004460141
159	0xbdd52b10	-0.10408604
160	0x3df9678e	0.121779546
161	0xbd765eac	-0.06014888
162	0x3dc51e02	0.09624864
163	0xbd339320	-0.04384148
164	0xbd394350	-0.04523021
165	0xbd712760	-0.05887544
166	0xbd85c7c2	-0.065322414
167	0x3de84272	0.113407984
168	0xbdc9156a	-0.098185375
169	0x3d6bae80	0.057539463
170	0xbdc03c02	-0.093864456
171	0xbdf4230c	-0.11920747
172	0xbd3a17b0	-0.045432746
173	0x3dba2b70	0.09090316
174	0xbdb25732	-0.087080374
175	0xbda3494a	-0.07972963
176	0xbd17484c	-0.036934182
177	0x3d8b3d2a	0.067987755
178	0xbdccfbf6	-0.10008995
179	0x3d85e0e0	0.06537032
180	0xbdb763f4	-0.089546114
181	0xbd962bca	-0.07332571
182	0x3baa2380	0.00519222
183	0xbd8162f6	-0.063177034
184	0xbddcb140	-0.10775995
185	0xbc90bc78	-0.017667994
186	0xbdab750e	-0.08371936
187	0xbd6cb4f0	-0.057789743
188	0x3d247798	0.040153116
189	0xbdcd51c6	-0.10025363
190	0xbda39af0	-0.07988536
191	0xbd586410	-0.052829802
192	0xbe08a0ac	-0.13342541
193	0xbe2e396c	-0.17014092
194	0xbe65d336	-0.22443852
195	0xbcaf91f7	-0.021431906
196	0xbdcf89b3	-0.10133686
197	0x3eb30b84	0.34969723
198	0xbe15e852	-0.14639404
199	0x3e93d279	0.28871515
200	0x3e086940	0.133214
201	0x3e4a58e5	0.19760473
202	0x3e9a98b7	0.30194637
203	0x3ebb35a8	0.36564374
204	0x3dba4417	0.09095018
205	0xbe29e06e	-0.1658952
206	0xbcb96844	-0.022632726
207	0xbdc20879	-0.09474272
208	0xbe5278fe	-0.20553967
209	0xbe892a58	-0.26790118
210	0x3de14445	0.109993495
211	0xbdd5186d	-0.104050495
212	0xbe8d17d0	-0.2755723
213	0xbd9737c6	-0.07383685
214	0x3e693366	0.22773513
215	0x3eec7293	0.46181163
216	0x3c231b4f	0.009955241
217	0x3e23925e	0.15973803
218	0xbe9daef7	-0.3079755
219	0xbd37dd71	-0.044888917
220	0xbea2b53e	-0.31778902
221	0xbdb90e97	-0.09035986
222	0xbe97b55f	-0.29630563
223	0xbe3d46b4	-0.18484002
224	0xbe3c561e	-0.18392226
225	0x3ee9b31a	0.45644456
226	0x3ccc4b5d	0.02493828
227	0xbb63ab0a	-0.0034739398
228	0x3d0c814e	0.034303002
229	0xbe5c2389	-0.2149793
230	0x3ea21961	0.31659988
231	0x3e15b31b	0.14619105
232	0xbd956b1d	-0.07295821
233	0xbe41fa22	-0.18943074
234	0x3ce4b172	0.027916644
235	0xbeb3c6a3	-0.35112485
236	0x3dedc3e2	0.11609627
237	0x3e0db34c	0.13837928
238	0x3a4bba0c	0.00077715586
239	0xbcb31a9d	-0.021863276
240	0xbca03865	-0.019558141
241	0x3e535da6	0.20641193
242	0x3e1a2cc4	0.15056139
243	0x3d554b4e	0.05207377
244	0xbe92f10d	-0.28699532
245	0x3e484045	0.19555767
246	0x3db076ea	0.08616431
247	0xbf9593ac	-1.1685691
248	0xbe88f2f9	-0.26747873
249	0xbe55ad49	-0.20866884
250	0x3e01d440	0.12678623
251	0x3e17ea71	0.14835526
252	0xbf19d08a	-0.6008383
253	0x3d5a6629	0.053320084
254	0xbf5cd3d2	-0.8626071
255	0xbd964fe3	-0.07339456

fc2.bias f4 [64]
0	0x3b387b6f	0.0028149744
1	0x3de6a7e7	0.112624936
2	0xbdd6cab0	-0.10487878
3	0xbd79e2d5	-0.06100734
4	0x3b16b786	0.0022997572
5	0xbd81f54b	-0.06345614
6	0x3cdebe83	0.027190452
7	0xbc0a76ec	-0.008451205
8	0x3deca2c1	0.1155448
9	0x3e022bc7	0.12712012
10	0x3d68aeb2	0.056807227
11	0x3da16fc1	0.078826435
12	0xbdf63434	-0.12021676
13	0x3e46ba7e	0.19407079
14	0x3d022237	0.03177091
15	0xbe2ccd9e	-0.16875312
16	0x3e59d58d	0.2127287
17	0xbdcfb161	-0.10141254
18	0xbdb4eb80	-0.088339806
19	0xbdae33fa	-0.085060075
20	0x3e7ad88e	0.24496672
21	0xbcce77c8	-0.0252036
22	0xbcd31fd4	-0.025772013
23	0x3e15a57d	0.1461391
24	0xbb5a9b3c	-0.0033356687
25	0x3c72efba	0.014827663
26	0x3d7e320c	0.062059447
27	0x3e423e29	0.18969025
28	0xbd2eb664	-0.04265441
29	0x3e570bdb	0.21000616
30	0x3d325417	0.043537226
31	0x3ddc6cd1	0.107629426
32	0x3d3d8e4b	0.04627828
33	0xbdd96e82	-0.10616781
34	0x3d7e608e	0.0621038
35	0x3d0d713f	0.034531828
36	0x3b956c78	0.0045600496
37	0x3d2bc1fe	0.041933052
38	0x3e848589	0.2588313
39	0x3d981e47	0.0742765
40	0x3e10810a	0.14111724
41	0x3d578790	0.052619517
42	0x3c7f0e5c	0.015567388
43	0x3cee1b32	0.029065702
44	0xbcee756d	-0.029108727
45	0xbb9a4a1b	-0.004708541
46	0x3cb468df	0.022022663
47	0xbc95fc43	-0.018308764
48	0x3dbd4127	0.092409424
49	0x3d720b6b	0.05909292
50	0x3dc3c585	0.09559158
51	0xbdb4695d	-0.08809159
52	0xbcd60e04	-0.02612973
53	0x3dc6f850	0.097153306
54	0x3d07a70e	0.0331183
55	0x3ca88afa	0.020574082
56	0x3dcfa5f0	0.10139072
57	0x3ba3ac4a	0.0049949037
58	0x3cb91fc6	0.022598159
59	0x3dc821fb	0.09772106
60	0x3e1ab92b	0.15109698
61	0x3daa7269	0.08322603
62	0xbd77b254	-0.0604728
63	0x3e00883c	0.1255197

fc3.weight f4 [1, 64]
0	0xbf69a7c8	-0.9127164
1	0xbf7cbd0e	-0.98725975
2	0x3bed8a60	0.0072491616
3	0xbf503945	-0.81337386
4	0xbf0c6fbb	-0.5485799
5	0xbf157517	-0.5838179
6	0xbf52aebd	-0.8229788
7	0xbf72c016	-0.9482435
8	0xbf4194dc	-0.75617766
9	0xbf7f2f19	-0.9968124
10	0x3ec401ba	0.38282567
11	0xbf22ae5b	-0.63547295
12	0x3d3b9afc	0.0458021
13	0x3eb8bd13	0.36081752
14	0xbf52fa1f	-0.82412905
15	0xbf969ddd	-1.1766926
16	0xbf58f90f	-0.84755033
17	0xbf8419d1	-1.0320379
18	0x3f557403	0.83380145
19	0xbf401962	-0.7503873
20	0xbf3c4a16	-0.73550546
21	0x3f4fff83	0.81249255
22	0xbfa63799	-1.2985717
23	0xbf4add25	-0.7924369
24	0x3f0b9edf	0.54539293
25	0x3f2f1ca4	0.6840308
26	0xbf85e5f1	-1.0460798
27	0x3ee09fe0	0.43871975
28	0xbf3af6ad	-0.7303265
29	0x3ed50f57	0.41613266
30	0x3f3f5159	0.747335
31	0xbf88d86a	-1.0691044
32	0x3ee6e1f8	0.45094275
33	0xbd1fc9df	-0.03901088
34	0xbf38a697	-0.72129196
35	0x3f38701c	0.72046065
36	0x3f2ea613	0.6822216
37	0xbf410669	-0.75400406
38	0xbf4b87b3	-0.79503936
39	0xbf53e72e	-0.8277463
40	0xbf662706	-0.89903295
41	0x3ee35dd0	0.4440751
42	0xbf2b35e7	-0.66879123
43	0x3f5e2162	0.8676969
44	0xbf640855	-0.89075214
45	0xbf871296	-1.0552547
46	0x3eaa1136	0.33216256
47	0xbf1661bc	-0.5874288
48	0x3f9a6442	1.2061846
49	0xbf423b39	-0.75871617
50	0x3f3c0135	0.7343934
51	0xbdae651a	-0.08515377
52	0x3f0adaf5	0.5424035
53	0x3f14e460	0.5816097
54	0xbf7644d2	-0.9619876
55	0xbf7d56ca	-0.98960555
56	0x3ee0c51e	0.43900388
57	0xbdc0e634	-0.09418908
58	0xbf4bb974	-0.79579854
59	0xbf2afdc6	-0.6679348
60	0xbf469b3b	-0.7758061
61	0xbf3388ac	-0.7013042
62	0xbdb32ccb	-0.08748778
63	0xbf627cbd	-0.88471586
